…
2019-10-29 23:23:04.088889: I tensorflow/core/common_runtime/gpu/gpu_device.cc:1304] Created TensorFlow device (/job:localhost/replica:0/task:0/device:GPU:0 with 3003 MB memory) -> physical GPU (device: 0, name: GeForce GTX 1050, pci bus id: 0000:01:00.0, compute capability: 6.1)
Model: "model"
_________________________________________________________________
Layer (type)                 Output Shape              Param #   
=================================================================
input_1 (InputLayer)         [(None, 567, 756, 3)]     0         
_________________________________________________________________
conv2d (Conv2D)              (None, 567, 756, 16)      448       
_________________________________________________________________
activation (Activation)      (None, 567, 756, 16)      0         
_________________________________________________________________
batch_normalization (BatchNo (None, 567, 756, 16)      64        
_________________________________________________________________
max_pooling2d (MaxPooling2D) (None, 283, 378, 16)      0         
_________________________________________________________________
conv2d_1 (Conv2D)            (None, 283, 378, 32)      4640      
_________________________________________________________________
activation_1 (Activation)    (None, 283, 378, 32)      0         
_________________________________________________________________
batch_normalization_1 (Batch (None, 283, 378, 32)      128       
_________________________________________________________________
max_pooling2d_1 (MaxPooling2 (None, 141, 189, 32)      0         
_________________________________________________________________
flatten (Flatten)            (None, 852768)            0         
_________________________________________________________________
dense (Dense)                (None, 4)                 3411076   
=================================================================
Total params: 3,416,356
Trainable params: 3,416,260
Non-trainable params: 96
_________________________________________________________________
None
[INFO] training model...
Train on 15 samples, validate on 4 samples
Epoch 1/1000
2019-10-29 23:23:06.391010: I tensorflow/stream_executor/platform/default/dso_loader.cc:44] Successfully opened dynamic library cublas64_100.dll
…
[1.66327998e+06 3.52548929e+03 2.21940221e+05 2.03929619e+07]
##############################################
   Model8_filters_2_dense_1_denseSize_16_Dropout_0_20191029-232600
##############################################
16
Model: "model_9"
_________________________________________________________________
Layer (type)                 Output Shape              Param #   
=================================================================
input_10 (InputLayer)        [(None, 567, 756, 3)]     0         
_________________________________________________________________
conv2d_18 (Conv2D)           (None, 567, 756, 16)      448       
_________________________________________________________________
activation_18 (Activation)   (None, 567, 756, 16)      0         
_________________________________________________________________
batch_normalization_18 (Batc (None, 567, 756, 16)      64        
_________________________________________________________________
max_pooling2d_18 (MaxPooling (None, 283, 378, 16)      0         
_________________________________________________________________
conv2d_19 (Conv2D)           (None, 283, 378, 32)      4640      
_________________________________________________________________
activation_19 (Activation)   (None, 283, 378, 32)      0         
_________________________________________________________________
batch_normalization_19 (Batc (None, 283, 378, 32)      128       
_________________________________________________________________
max_pooling2d_19 (MaxPooling (None, 141, 189, 32)      0         
_________________________________________________________________
flatten_9 (Flatten)          (None, 852768)            0         
_________________________________________________________________
dense_9 (Dense)              (None, 16)                13644304  
_________________________________________________________________
activation_20 (Activation)   (None, 16)                0         
_________________________________________________________________
dropout (Dropout)            (None, 16)                0         
_________________________________________________________________
dense_10 (Dense)             (None, 4)                 68        
=================================================================
Total params: 13,649,652
Trainable params: 13,649,556
Non-trainable params: 96
_________________________________________________________________
None
[INFO] training model...
Train on 15 samples, validate on 4 samples
Epoch 1/1000
2019-10-29 23:26:02.206092: I tensorflow/core/profiler/lib/profiler_session.cc:184] Profiler session started.
…
[ 1472023.92442866   135573.40301771   184209.79199356 44750558.57712346]
##############################################
   Model8_filters_2_dense_1_denseSize_32_Dropout_0_20191029-232707
##############################################
32
Model: "model_12"
_________________________________________________________________
Layer (type)                 Output Shape              Param #   
=================================================================
input_13 (InputLayer)        [(None, 567, 756, 3)]     0         
_________________________________________________________________
conv2d_24 (Conv2D)           (None, 567, 756, 16)      448       
_________________________________________________________________
activation_27 (Activation)   (None, 567, 756, 16)      0         
_________________________________________________________________
batch_normalization_24 (Batc (None, 567, 756, 16)      64        
_________________________________________________________________
max_pooling2d_24 (MaxPooling (None, 283, 378, 16)      0         
_________________________________________________________________
conv2d_25 (Conv2D)           (None, 283, 378, 32)      4640      
_________________________________________________________________
activation_28 (Activation)   (None, 283, 378, 32)      0         
_________________________________________________________________
batch_normalization_25 (Batc (None, 283, 378, 32)      128       
_________________________________________________________________
max_pooling2d_25 (MaxPooling (None, 141, 189, 32)      0         
_________________________________________________________________
flatten_12 (Flatten)         (None, 852768)            0         
_________________________________________________________________
dense_15 (Dense)             (None, 32)                27288608  
_________________________________________________________________
activation_29 (Activation)   (None, 32)                0         
_________________________________________________________________
dropout_3 (Dropout)          (None, 32)                0         
_________________________________________________________________
dense_16 (Dense)             (None, 4)                 132       
=================================================================
Total params: 27,294,020
Trainable params: 27,293,924
Non-trainable params: 96
_________________________________________________________________
None
[INFO] training model...
Train on 15 samples, validate on 4 samples
Epoch 1/1000
2019-10-29 23:27:09.983822: I tensorflow/core/profiler/lib/profiler_session.cc:184] Profiler session started.
…
