…
2019-10-29 16:11:29.177725: I tensorflow/core/common_runtime/gpu/gpu_device.cc:1304] Created TensorFlow device (/job:localhost/replica:0/task:0/device:GPU:0 with 3003 MB memory) -> physical GPU (device: 0, name: GeForce GTX 1050, pci bus id: 0000:01:00.0, compute capability: 6.1)
Model: "model"
_________________________________________________________________
Layer (type)                 Output Shape              Param #   
=================================================================
input_1 (InputLayer)         [(None, 567, 756, 3)]     0         
_________________________________________________________________
conv2d (Conv2D)              (None, 567, 756, 16)      448       
_________________________________________________________________
activation (Activation)      (None, 567, 756, 16)      0         
_________________________________________________________________
batch_normalization (BatchNo (None, 567, 756, 16)      64        
_________________________________________________________________
max_pooling2d (MaxPooling2D) (None, 283, 378, 16)      0         
_________________________________________________________________
flatten (Flatten)            (None, 1711584)           0         
_________________________________________________________________
dense (Dense)                (None, 4)                 6846340   
=================================================================
Total params: 6,846,852
Trainable params: 6,846,820
Non-trainable params: 32
_________________________________________________________________
None
[INFO] training model...
Train on 15 samples, validate on 4 samples
Epoch 1/300
2019-10-29 16:11:30.338002: I tensorflow/stream_executor/platform/default/dso_loader.cc:44] Successfully opened dynamic library cublas64_100.dll
…
[2.18217594e+03 3.72958133e+00 1.08382815e+03 8.87905629e+04]
##############################################
   Model8_filters_1_dense_1_denseSize_16_Dropout_0_20191029-162427
##############################################
16
Model: "model_9"
_________________________________________________________________
Layer (type)                 Output Shape              Param #   
=================================================================
input_10 (InputLayer)        [(None, 567, 756, 3)]     0         
_________________________________________________________________
conv2d_9 (Conv2D)            (None, 567, 756, 16)      448       
_________________________________________________________________
activation_9 (Activation)    (None, 567, 756, 16)      0         
_________________________________________________________________
batch_normalization_9 (Batch (None, 567, 756, 16)      64        
_________________________________________________________________
max_pooling2d_9 (MaxPooling2 (None, 283, 378, 16)      0         
_________________________________________________________________
flatten_9 (Flatten)          (None, 1711584)           0         
_________________________________________________________________
dense_9 (Dense)              (None, 16)                27385360  
_________________________________________________________________
activation_10 (Activation)   (None, 16)                0         
_________________________________________________________________
dropout (Dropout)            (None, 16)                0         
_________________________________________________________________
dense_10 (Dense)             (None, 4)                 68        
=================================================================
Total params: 27,385,940
Trainable params: 27,385,908
Non-trainable params: 32
_________________________________________________________________
None
[INFO] training model...
Train on 15 samples, validate on 4 samples
Epoch 1/300
2019-10-29 16:24:29.089650: I tensorflow/core/profiler/lib/profiler_session.cc:184] Profiler session started.
…
